Model
________________________________________________________________________________
Layer (type)              Output Shape      Param #  Connected to               
================================================================================
input_3 (InputLayer)      (None, 2986)      0                                   
________________________________________________________________________________
dropout_8 (Dropout)       (None, 2986)      0        input_3[0][0]              
________________________________________________________________________________
dense_8 (Dense)           (None, 8)         23896    dropout_8[0][0]            
________________________________________________________________________________
dropout_9 (Dropout)       (None, 8)         0        dense_8[0][0]              
________________________________________________________________________________
dense_9 (Dense)           (None, 4)         36       dropout_9[0][0]            
________________________________________________________________________________
dropout_10 (Dropout)      (None, 4)         0        dense_9[0][0]              
________________________________________________________________________________
dense_10 (Dense)          (None, 2)         10       dropout_10[0][0]           
________________________________________________________________________________
dropout_11 (Dropout)      (None, 2)         0        dense_10[0][0]             
________________________________________________________________________________
dense_11 (Dense)          (None, 4)         12       dropout_11[0][0]           
________________________________________________________________________________
CD3 (Dense)               (None, 1)         5        dense_11[0][0]             
________________________________________________________________________________
CD19 (Dense)              (None, 1)         5        dense_11[0][0]             
________________________________________________________________________________
CD45RA (Dense)            (None, 1)         5        dense_11[0][0]             
________________________________________________________________________________
CD4 (Dense)               (None, 1)         5        dense_11[0][0]             
________________________________________________________________________________
CD8a (Dense)              (None, 1)         5        dense_11[0][0]             
________________________________________________________________________________
CD14 (Dense)              (None, 1)         5        dense_11[0][0]             
________________________________________________________________________________
CD45RO (Dense)            (None, 1)         5        dense_11[0][0]             
________________________________________________________________________________
CD279_PD_1 (Dense)        (None, 1)         5        dense_11[0][0]             
________________________________________________________________________________
IgG1 (Dense)              (None, 1)         5        dense_11[0][0]             
________________________________________________________________________________
IgG2a (Dense)             (None, 1)         5        dense_11[0][0]             
________________________________________________________________________________
IgG2b (Dense)             (None, 1)         5        dense_11[0][0]             
________________________________________________________________________________
CD127 (Dense)             (None, 1)         5        dense_11[0][0]             
________________________________________________________________________________
CD197_CCR7 (Dense)        (None, 1)         5        dense_11[0][0]             
________________________________________________________________________________
HLA_DR (Dense)            (None, 1)         5        dense_11[0][0]             
================================================================================
Total params: 24,024
Trainable params: 24,024
Non-trainable params: 0
________________________________________________________________________________


